…
 are reconstructing reconstructed_data = Dense(input_dim, activation='linear', name='OUTPUT0')(decoder) autoencoder_model = Model(input_data, reconstructed_data) return autoencoder_model In [11]: Copied! autoencoder_model = create_model ( len ( features )) autoencoder_model . summary () autoencoder_model = create_model(len(features)) autoencoder_model.summary() Model: \"model\" _________________________________________________________________ Layer (type) Output Shape Param # ================================================================= INPUT0 (InputLayer) [(None, 10)] 0 encoder_1 (Dense) (None, 9) 99 dropout (Dropout) (None, 9) 0 encoder_2 (Dense) (None, 6) 60 dropout_1 (Dropout) (None, 6) 0 latent_encoding (Dense) (None, 3) 21 decoder_1 (Dense) (None, 6) 24 dropout_2 (Dropout) (None, 6) 0 decoder_2 (Dense) (None, 9) 63 dropout_3 (Dropout) (None, 9) 0 OUTPUT0 (Dense) (None, 10) 100 ================================================================= Total params: 367 Trainable params: 367 Non-trainable params: 0 _________________________________________________________________ Model training \u00b6 As we already explained, the autoencoder is a type of artificial neural network used to learn efficient codings of unlabeled data. We'll use that to reconstruct the input at the out
…
