…
return autoencoder_model In\u00a0[11]: Copied! <pre>autoencoder_model = create_model(len(features))\nautoencoder_model.summary()\n</pre> autoencoder_model = create_model(len(features)) autoencoder_model.summary() <pre>Model: \"model\"\n_________________________________________________________________\n Layer (type)                Output Shape              Param #   \n=================================================================\n INPUT0 (InputLayer)         [(None, 10)]              0         \n                                                                 \n encoder_1 (Dense)           (None, 9)                 99        \n                                                                 \n dropout (Dropout)           (None, 9)                 0         \n                                                                 \n encoder_2 (Dense)           (None, 6)                 60        \n                                                                 \n dropout_1 (Dropout)         (None, 6)                 0         \n                                                                 \n latent_encoding (Dense)     (None, 3)                 21        \n                                                                 \n decoder_1 (Dense)           (None, 6)                 24        \n                                                                 \n dropout_2 (Dropout)         (None, 6)                 0         \n                                                                 \n decoder_2 (Dense)           (None, 9)                 63        \n                                                                 \n dropout_3 (Dropout)         (None, 9)                 0         \n                                                                 \n OUTPUT0 (Dense)             (None, 10)                100       \n                                                                 \n=================================================================\nTotal params: 367\nTrainable params: 367\nNon-trainable params: 0\n_________________________________________________________________\n</pre> <p></p> In\u00a0[12]: Copied! <pre>from tensorflow.keras import optimizers\n\nbatch_size = 32\nmax_epochs = 15\nlear
…
